lstm_regressor.pt (torch, 204896 bytes, 9 tensors)

lstm.weight_ih_l0 f4 [256, 1]
000000 df 76 d0 3d 2f 00 cb 3d 9d 38 81 3d 85 67 f6 3d
       0.10178923 0.099121444 0.06309626 0.120314635
000010 00 b8 9a 3d fe 3c a2 bd a6 92 b0 bd 19 ba 02 3e
       0.075546265 -0.079217896 -0.08621721 0.12766303
000020 d4 2a 40 bd c9 f9 b8 3c 4a 07 04 3e 1f 91 cb bb
       -0.046915844 0.022580044 0.12893406 -0.006212368
000030 04 2a be bd fe ba 3e bd 8b 13 7b 3d 3d a1 32 3d
       -0.092853576 -0.04656505 0.061297935 0.0436108
000040 1f 63 5e bd 15 45 15 3e 3d ee b3 bd 1e 6e 1f 3e
       -0.054293748 0.14577134 -0.08785675 0.1556935
000050 2f e3 85 3d 4a ce 11 b9 23 59 82 bd 32 09 9e bd
       0.065374725 -0.00013905126 -0.06364658 -0.077165976
000060 bc 2e 30 3d 0a 18 17 be 3d 9b e4 bd 41 88 30 bc
       0.04301332 -0.14755264 -0.11162422 -0.010774673
000070 18 52 78 3d c4 dc 84 3d f3 9c 84 3d 91 91 c4 bd
       0.060625166 0.0648742 0.06475248 -0.09598077
000080 b9 3f db 3c 8c db 38 3d 52 a7 39 bd c3 b9 c2 3d
       0.026763784 0.04513125 -0.045325585 0.095080875
000090 2c 39 90 bd 95 de 8f bc 7a c7 c6 bc 22 da 66 bd
       -0.07042155 -0.01756219 -0.02426504 -0.05636037
0000a0 c8 4f c8 3d 80 c6 25 3e ca e5 7d bd 59 4a 62 bd
       0.09780842 0.16189003 -0.061986722 -0.055246685
0000b0 87 08 a9 bd 2e 35 ce bd c8 81 25 bd dd 55 48 3d
       -0.082535796 -0.10068737 -0.040406972 0.04891001
0000c0 9e 61 2c 3d f1 5d 16 3e 16 2c 8e 3d 39 6f b3 bd
       0.042085283 0.14684273 0.069420025 -0.087614484
0000d0 9f 24 a7 3d 5a 1b 80 3d 88 12 77 bc 8e e7 a0 3d
       0.08161282 0.06255217 -0.015080102 0.078566656
0000e0 5e 2f b3 bd 68 f4 fa 3d 52 9c 91 bd e3 49 34 3d
       -0.08749269 0.12253648 -0.07109894 0.044015776
0000f0 94 73 a8 3d ac 43 04 be 76 43 bf 3d b3 41 98 3a
       0.0822517 -0.1291644 0.09339039 0.001161626
000100 61 e5 8a 3c 75 39 5b 3d 97 e0 be bb d9 28 be 3d
       0.01695508 0.053521592 -0.005825113 0.09285135
000110 59 27 61 3d 8a 5c 5d 3a d5 d3 07 3d da d0 11 3d
       0.054969165 0.00084442704 0.033161003 0.035599567
000120 67 9b 42 3d 6d 53 f8 bc f8 8d 6b bd 9d 85 d7 bd
       0.047511484 -0.030313218 -0.05750844 -0.105235316
000130 ed 3d d4 3d 25 13 82 bd 21 87 a1 bd d2 65 93 bc
       0.10363374 -0.06351308 -0.07887102 -0.017992888
000140 23 2c fa bd 69 13 22 3e ee ba aa bd 84 f4 f7 3d
       -0.1221545 0.15827717 -0.08336435 0.121071845
000150 e0 4b 7d bc 0a a3 85 bd f8 a6 5c 3d aa 13 f5 3c
       -0.015459985 -0.06525238 0.05387017 0.029916603
000160 f2 4c a3 3d 0b 1e 02 3d b8 b3 16 bd 6e 02 77 3d
       0.079736605 0.031766932 -0.036792487 0.06030505
000170 f6 47 90 bd 47 f0 38 bd 24 40 d0 bb 0d 2e a5 bd
       -0.070449755 -0.04515102 -0.0063553024 -0.08065424
000180 60 fd 1e 3d b1 e2 c9 3d 03 eb f2 3d 83 64 08 bd
       0.038815856 0.09857691 0.11861231 -0.03329898
000190 ab 74 ec 3d 95 f5 30 bd b8 1c e1 3d 57 0a 6a bd
       0.1154569 -0.043202955 0.10991806 -0.057138767
0001a0 3d a4 ac 3d 2c 25 f5 3c 5a 30 15 3e 27 67 2c ba
       0.084297635 0.029924951 0.14569226 -0.000657665
0001b0 b9 92 13 3d 36 e5 03 3e a3 fb f5 3d 9e 6a cf bc
       0.036028598 0.12880406 0.120108865 -0.025319394
0001c0 88 f5 1d bd 7a 78 9c 3d 3e 2a f9 3c 60 e9 04 be
       -0.038564235 0.076401666 0.03041565 -0.1297965
0001d0 c5 67 47 bd be 66 b2 3c 97 c4 99 bd db c7 f6 bd
       -0.048682947 0.021777507 -0.075082 -0.12049838
0001e0 a1 7d ad 3d 7b 7e e8 3c 04 8e 78 bd 4e 59 f4 3d
       0.084712274 0.028380623 -0.06068231 0.11931096
0001f0 1b 10 fc bd ea 5b af 3b 8f 0e 30 bd a2 2c e8 3d
       -0.123077594 0.005351533 -0.042982634 0.11336638
000200 ba ea 1f 3e 93 74 b1 3d e4 65 16 3e ba ac b6 bc
       0.15616885 0.08664813 0.14687306 -0.02229916
000210 d3 30 3a 3d d8 da 3b ba 7c 63 06 be 1d 69 1d 3e
       0.04545672 -0.0007166094 -0.13123888 0.15372129
000220 e3 28 01 3e d5 a4 3e bd 2e e6 07 3e c6 b7 d8 bd
       0.12613253 -0.046543915 0.132714 -0.10581927
000230 e8 eb f7 bd 9e 1d ed 3d 79 04 1f bd 44 7b 9c 3d
       -0.121055424 0.11577915 -0.038822625 0.076406986
000240 d1 12 17 be c2 01 bd bd e8 4c d7 3d 85 26 03 be
       -0.14753272 -0.09228851 0.105127156 -0.12807663
000250 22 57 9a 3d de 74 f6 bd c7 39 0f 3e 11 5b bc bd
       0.075361505 -0.120340094 0.13986884 -0.09197057
000260 85 93 82 bd 0e de 5d 3b 85 41 07 be 74 f0 d7 bd
       -0.06375793 0.0033854279 -0.13208587 -0.1054391
000270 bb 0c cd bd cf 04 e6 3d 39 e2 a5 bd f8 7a ac 3c
       -0.10012194 0.11231386 -0.08099789 0.02105473
000280 d3 57 13 be 55 b3 e4 bd 4b 16 11 be 2e 8e 68 3d
       -0.14388971 -0.11167017 -0.1416866 0.056776218
000290 7b 8a ef 3d 8e aa d5 3d a9 41 af 3d e6 48 5d bd
       0.11696335 0.10432921 0.085574456 -0.0540246
0002a0 c1 29 91 3d 56 68 22 3e 3f 5e 85 3d 77 ee 10 3e
       0.07088042 0.15860114 0.06512117 0.14153467
0002b0 d8 c8 e7 bd 37 69 1d 3e 22 8e 0f 3e 00 e6 e5 3d
       -0.11317605 0.15372168 0.14019063 0.1122551
0002c0 44 fc f0 3d a2 fb 25 3e 8c 5b 08 be 54 0f 6f bd
       0.11766866 0.16209272 -0.13316172 -0.058364227
0002d0 0d d5 dc bd 9f b6 17 3e 3c 57 09 be 7c bd a8 3d
       -0.10782824 0.14815758 -0.13412184 0.08239266
0002e0 2d 5c 6b bd a0 bc 91 bb da 5d 1b 3e 29 eb 4c 3d
       -0.057460953 -0.0044475347 0.1517252 0.050028954
0002f0 1e c7 25 3e 1e f1 11 3e af a1 6b 3d 80 94 e3 bd
       0.16189238 0.14252135 0.05752724 -0.111123085
000300 1e 3b 09 3e 8b fe 30 3d 0d f3 8f 3d 65 64 88 3d
       0.13401458 0.0432115 0.0702878 0.06659774
000310 31 25 f8 3b eb 06 08 3d 1a 83 c5 3d d9 78 1a 3e
       0.007572793 0.033209722 0.09644146 0.15085162
000320 98 a1 bd bc 9e bc 00 be f8 61 92 3d 3d 68 31 3d
       -0.023148343 -0.12571952 0.07147592 0.0433123
000330 87 73 07 3d 1b ff 15 bd 4f 9f 62 3c 1f 08 4a bd
       0.03306916 -0.03662024 0.013831927 -0.04932415
000340 5d f7 2c 3d d7 2b 22 bd 5f ec 83 bb ad 62 fd bc
       0.04222809 -0.03959259 -0.0040259804 -0.030930841
000350 32 da d2 3d 6d ed 9e 3b 91 0f dc 3d 57 13 c0 bd
       0.10295524 0.0048500807 0.107451566 -0.09378689
000360 44 e9 ae bd 5c dc 83 3d f3 87 01 3d 72 3b 66 3d
       -0.08540586 0.064385146 0.031623792 0.056209035
000370 33 56 c6 bc 13 0b 8b bd c8 b9 de bd 50 fb e6 bd
       -0.024211025 -0.067892216 -0.10875279 -0.11278403
000380 8a 53 c6 3c 35 c0 93 3b a0 e5 50 bc 1b a2 a7 bd
       0.024209756 0.004508997 -0.012750059 -0.08185216
000390 02 f9 05 3e 93 30 12 3e 72 7c 9c bb 27 a2 eb 3c
       0.1308327 0.14276342 -0.004775577 0.028763844
0003a0 c4 87 10 bd 0e fa 94 bd 79 76 ac bc d5 e8 cc 3c
       -0.035285726 -0.07274257 -0.021052586 0.025013367
0003b0 a8 3b c0 bc f2 76 97 bc 4d 53 7e bd 6f 51 e0 bd
       -0.023465946 -0.018489335 -0.06209116 -0.10953032
0003c0 ac b1 e9 bd f6 77 86 3b bc 09 cb bd 5e 0e 73 3b
       -0.11410841 0.004103656 -0.09913966 0.003708742
0003d0 7f 1f 0b 3d 1d 1b 09 be bf 08 93 3d 83 63 43 bd
       0.033965584 -0.13389249 0.071794026 -0.047702324
0003e0 99 74 56 3d 9e 0e 44 3d 3f 96 41 3d 03 1f 67 bd
       0.05235729 0.047865503 0.047262426 -0.05642606
0003f0 36 af 3a 3d 5c e3 fc bd 02 80 ec 3c d4 b3 ca 3d
       0.04557725 -0.12348053 0.028869633 0.09897581

lstm.weight_hh_l0 f4 [256, 64]
000000 af cc cb bc a7 27 52 3d 35 6d 58 3d 0e c2 9e bc
       -0.024877874 0.051307347 0.052838523 -0.019379642
000010 3e 4f 0c 3d b4 25 ee bd 01 ff 1d bc 0d a4 50 3d
       0.03425526 -0.11628285 -0.009643317 0.0509377
000020 22 8e b7 3d a5 30 24 3d ff 5e 17 3e b5 4e 90 bd
       0.089626566 0.040085454 0.14782332 -0.07046262
000030 65 6c 13 bd e8 79 26 bd 3b 59 b2 3d 4d 53 b7 3d
       -0.035992045 -0.040643603 0.087084256 0.08951435
000040 97 1a eb bd fb 6b 95 bd 6b a3 97 3d 04 bf 8c bb
       -0.11479681 -0.07295986 0.074042164 -0.004295232
000050 99 d8 84 bc d1 c3 8e 3d 88 5e fa 3c 62 cc 30 3b
       -0.016216563 0.06970943 0.030562654 0.002697729
000060 15 b3 87 3d cb 4d b3 3d d7 29 4a 3c 29 b5 62 bd
       0.06625954 0.08755072 0.012339077 -0.05534855
000070 f2 a6 08 be 54 42 0b be 4b c1 b8 3d bf 79 d0 3c
       -0.13344935 -0.13599521 0.09021243 0.025448678
000080 46 71 97 bd bb d5 80 bd 68 ad a6 3d 56 f1 4e 3c
       -0.07394652 -0.06290766 0.08138543 0.012630781
000090 13 e6 a1 bd b4 68 b5 bd 7a 9b 5f bd d7 10 12 3e
       -0.07905211 -0.08857861 -0.054591633 0.14264236
0000a0 25 4b bd 3b a7 f6 56 ba ae 77 43 bd 34 e4 23 bc
       0.00577678 -0.0008200206 -0.047721557 -0.010003138
0000b0 a1 f8 8d 3d ff da 43 bd 59 8a 0d 3d db 6d 84 3d
       0.06932188 -0.047816273 0.034555767 0.06466266
0000c0 56 20 10 3d 4c 74 8f bd 00 d4 cc bd 44 3e e1 bd
       0.035187088 -0.07004604 -0.10001373 -0.10998204
0000d0 b8 a8 bb 3d 8a e0 a4 3c 69 c6 01 be e5 1a 9a bd
       0.0916304 0.0201266 -0.12673344 -0.07524661
0000e0 8c c4 e9 3d 72 c2 6e bd 38 c2 47 bc e6 e5 5d bd
       0.114144415 -0.058290906 -0.012192301 -0.054174326
0000f0 c1 12 e3 3d b4 cb c0 3d bf 53 b3 ba e3 3c e6 bd
       0.110875614 0.09413853 -0.0013681574 -0.11242082
000100 75 68 bb 3b 08 5d c6 bd 8e 90 9e bd 97 5d 07 be
       0.0057192394 -0.09685713 -0.07742415 -0.13219295
000110 99 29 31 bd e1 f2 8b bd 93 1d aa bc 6f c6 10 3b
       -0.04325256 -0.06833435 -0.020766055 0.0022090932
000120 27 62 54 3d d0 2b ca bd 9c c1 08 3e 6c 05 04 be
       0.051851418 -0.09871638 0.13355106 -0.12892693
000130 a0 76 f9 bd 55 dc e4 3d d9 74 26 3d 67 59 a4 3d
       -0.12180829 0.111748375 0.04063878 0.08024865
000140 e7 38 4f 3d c7 f7 88 3d 79 fc f1 bc cc ab c1 3d
       0.050591376 0.06687885 -0.029539334 0.09456596
000150 aa 09 17 3d 12 a3 20 3d ff 45 0e bd 48 c0 da 3c
       0.03687445 0.039218016 -0.034734722 0.026703015
000160 53 0c 8e 3d c8 80 75 39 ed db 7e bd 2f 32 9b bd
       0.069359444 0.00023412996 -0.062221456 -0.07577931
000170 ba f5 ac bb 7b 94 70 bc 39 7e b6 37 a1 1a 58 bd
       -0.0052783163 -0.014683838 2.1754868e-05 -0.05275977
000180 66 11 8d bc d1 92 ad 3d c7 32 cd 3d 8e 60 af bd
       -0.01722021 0.08475269 0.10019451 -0.08563338
000190 55 08 50 bd f1 59 b4 3c ad 14 1d 3d 4c 5c 23 3c
       -0.050789196 0.022015544 0.038349796 0.009970736
0001a0 c6 1f 85 3b af 97 f7 3c 37 60 98 bd 33 c4 be 3d
       0.0040626256 0.030223696 -0.074402265 0.09314766
0001b0 5c ac ee bd f2 57 3e bd 96 9c 15 bd 76 4e 71 3d
       -0.11653969 -0.04647059 -0.036526285 0.058912717
0001c0 78 c9 c2 bd 08 f5 55 bc b3 88 c0 39 34 55 10 be
       -0.09511083 -0.013058908 0.00036722943 -0.14095002
0001d0 92 86 1b bd c7 f4 24 bd 30 79 70 bd f6 dc db bd
       -0.037970133 -0.0402725 -0.058709323 -0.10735504
0001e0 32 49 22 bd 42 3d eb bd a1 26 08 bd 4d 35 83 3c
       -0.039620586 -0.114862934 -0.033239964 0.016016627
0001f0 a6 c6 e6 bb aa 4d 0d bc a6 88 aa 3d cc e5 cb 3d
       -0.0070427237 -0.008624474 0.08326845 0.0995594
000200 1d bb 87 3d 73 4a f7 3d 47 59 cd 3d 1b 04 83 bd
       0.06627486 0.12074747 0.10026794 -0.063972674
000210 11 bf ac 3d 57 93 0f bd bf 27 8e bd a8 e5 6c bd
       0.084348805 -0.035052624 -0.06941175 -0.057836205
000220 e5 9e cb 3c 5d 97 99 bd 75 f9 7f bd aa c1 59 bd
       0.02485604 -0.074995734 -0.06249376 -0.053163208
000230 fe 75 a9 3c 30 66 9e 3c 5f 5a dc b9 b0 58 a4 bd
       0.020686146 0.019335836 -0.00042029002 -0.08024728
000240 4a 96 9e bd f0 d3 81 bd 50 de eb bd 1c a9 08 be
       -0.07743509 -0.06339252 -0.11517012 -0.1334576
000250 79 f7 ce bc ca 1c cd bd b3 99 aa 3d b4 c3 b1 3b
       -0.025264489 -0.10015257 0.08330097 0.005424941
000260 a8 8c dd 3a 8f b0 f2 bd c0 77 05 3e c4 c7 e1 bd
       0.0016902881 -0.11850082 0.13033962 -0.110244304
000270 92 38 1b be 4d 02 36 3c 81 b5 17 3d df 61 f0 bd
       -0.15158299 0.011108947 0.03703833 -0.117374174
000280 36 51 11 bd a7 f8 d1 bd 93 36 9c 3d 95 73 9f bc
       -0.03547784 -0.10252505 0.07627597 -0.019464293
000290 79 cc c2 3c 18 2e 0f bd 7a 7a ae 3c ae c7 a9 bd
       0.02377914 -0.034956068 0.021298636 -0.08290039
0002a0 b1 85 17 3e ac eb c3 3d 4d 7e b2 bd cd cd 2e 3d
       0.14797093 0.09566435 -0.08715496 0.042676736
0002b0 0f 80 9f 3d 23 31 47 bd 41 83 63 bd 20 c0 65 3b
       0.07788097 -0.048630845 -0.055545095 0.0035057142
0002c0 6f 6d b1 3d 70 ff 09 3e dd 04 fc 3d 57 8f b3 3d
       0.08663451 0.13476348 0.12305615 0.08767574
0002d0 12 9d 1b 3d 24 0a 25 bd e7 18 e5 bd 5c e3 6f bd
       0.03799159 -0.040292874 -0.1118639 -0.058566436
0002e0 53 c8 ae 3d ea 38 07 3e 6c fb a4 bd 23 2d 06 3e
       0.085343026 0.13205305 -0.080557674 0.13103156
0002f0 0c 8f 3b 3d a7 62 2c 3d ab d4 94 3c 1e 7b a5 bb
       0.045790717 0.04208627 0.018167814 -0.005050077
000300 1a 1c ef bc 06 da 4a 3c 6b 8b c8 bc 4b 40 e5 bd
       -0.029188205 0.012381082 -0.024480542 -0.111939035
000310 ff 24 ef 3b b0 6e 28 bd 15 ed 6d bd 69 2c 9c 3d
       0.0072981114 -0.041121185 -0.058087427 0.07625658
000320 84 80 a6 bd 61 73 0f 3e 89 a6 9d 3c 53 a4 ef 3d
       -0.08129981 0.14008857 0.01924445 0.11701264
000330 45 c5 e4 3d 09 bf 1a be d7 e3 b6 bc 8c 92 bc 3d
       0.11170439 -0.15111937 -0.02232544 0.09207639
000340 e1 94 98 3d 2f 8a c4 bc 77 d2 ed bd db 79 88 bd
       0.074502714 -0.023991672 -0.116124086 -0.06663867
000350 11 f0 5d 3c c9 53 90 3d fd fc bd 3d 9d c9 33 bd
       0.013546006 0.07047231 0.09276769 -0.043893445
000360 89 d3 01 3e 18 9e 26 3d 2f 38 96 3d 79 6a ac 3d
       0.1267835 0.040678114 0.07334935 0.084187455
000370 d3 e0 b4 bd 64 b3 cf 3c d0 59 07 bd 90 bf e5 3d
       -0.08831944 0.025354095 -0.033044636 0.11218178
000380 6b 51 bc 3d 1c 2a 01 3c 15 53 82 bb e2 97 e3 bb
       0.09195217 0.007883575 -0.0039771893 -0.006945596
000390 16 59 11 bc af 9c de bd db 74 3b 3c e5 09 17 3d
       -0.008871337 -0.10869729 0.011441435 0.03687467
0003a0 c7 2d a4 bd d0 63 12 ba 33 0b dd bc 5e 59 eb bc
       -0.08016544 -0.0005584331 -0.02698288 -0.028729137
0003b0 f7 42 2a bc 4e 84 3c bd df e8 83 bd 18 e0 1b be
       -0.010391942 -0.046024613 -0.06440901 -0.15222204
0003c0 d0 d6 a7 3d 70 d6 b3 3d fa d2 3f bd 48 7d 0a be
       0.08195269 0.08781135 -0.046832062 -0.13524354
0003d0 39 14 51 bc bf 6f 14 be f9 3a 1d 3d be 0f 58 3d
       -0.012761169 -0.14495753 0.03838632 0.052749388
0003e0 d1 c4 dc bd 60 bb 0d bd c1 42 93 bd 2e 07 08 be
       -0.10779727 -0.034602523 -0.07190467 -0.13283989
0003f0 7b 21 a9 3b 98 22 4a bd 27 6d f0 3c 8a cf d0 3d
       0.005161462 -0.049349397 0.029348923 0.10195835

lstm.bias_ih_l0 f4 [256]
000000 da 12 e6 bb 39 e2 2c 3c e9 5c 06 3e 7b b7 93 ba
       -0.0070212903 0.010551983 0.1312138 -0.0011269891
000010 71 1e 04 3d 09 22 28 bb ef 54 fc 3d fd 1a 14 3e
       0.032255594 -0.0025655052 0.12320887 0.1446342
000020 58 08 9e 3b 4b 90 92 bd a8 12 0c bd 0a 50 37 bb
       0.004822772 -0.07156428 -0.03419748 -0.002797129
000030 08 46 80 bd fc c3 9f bd 7c 31 0c be 7f ea 69 3d
       -0.062633574 -0.07801053 -0.13690752 0.0571084
000040 f6 6b f5 3d d9 0c ea 3d 8a be 6a bd 7f 7b a4 bc
       0.119834825 0.11428232 -0.05731062 -0.020078419
000050 a9 df ef bc e2 a2 ac bd e8 6e 18 3e 39 75 cd 3d
       -0.029281454 -0.08429505 0.14886057 0.10032124
000060 86 3a c9 3c a6 1f 3b 3d 1e f0 81 bd 0c b3 9d bd
       0.024564039 0.04568448 -0.06344627 -0.07700166
000070 d0 5d 61 bd c1 11 e6 3d 39 cf cc bc bb 66 b2 3d
       -0.055021107 0.11233855 -0.025001155 0.087110005
000080 a5 64 ad bd 39 b0 98 3d 35 5f 1e 3d 2a db 13 bd
       -0.08466462 0.07455487 0.038665015 -0.036097683
000090 78 31 1a 3e 5e 5c e9 bc 93 ee 05 3e 2c a9 28 bc
       0.15057933 -0.028486427 0.1307929 -0.01029424
0000a0 f7 3b cc 3d b5 c8 04 3e e3 2f 9d bd e3 77 c5 bc
       0.09972375 0.12967189 -0.07675149 -0.024105018
0000b0 18 9f 5f 3c 29 43 b0 3d 47 b6 36 bd 7b 09 85 3d
       0.013648771 0.0860656 -0.044607427 0.06495949
0000c0 f4 06 17 bc b7 95 c4 3d d9 ac c2 bc bb 70 2c bd
       -0.009217966 0.09598868 -0.02376406 -0.042099696
0000d0 27 89 cc 3d 6b 73 e1 3c ca ff 51 3d de b3 08 3e
       0.09987097 0.027520856 0.05126933 0.13349864
0000e0 c4 59 27 bd 34 29 a2 bc ea dc 07 bd 47 ab 62 bb
       -0.04085709 -0.019795038 -0.033169664 -0.0034586953
0000f0 b4 65 90 3d 04 47 fe 3d b2 7e c4 3d 97 de 06 3c
       0.07050648 0.12415889 0.09594478 0.0082317805
000100 16 05 ba 3a fd 7e 4b 3d 92 86 72 3d 36 20 98 bd
       0.001419219 0.049681652 0.059210368 -0.07428019
000110 c6 4b 3b bc 7a ca 56 bc 0f ee 3f bc 50 37 18 3c
       -0.01143164 -0.013109798 -0.011714472 0.009290531
000120 1a f4 75 bb 24 87 9f 3c 5b e2 a5 3d 6c c6 b4 3d
       -0.003752953 0.01947362 0.080998145 0.088269085
000130 8a a6 32 3c b8 81 a1 3d 92 0e 3e bb da ac e3 bc
       0.010903964 0.0788607 -0.0029000384 -0.027792383
000140 b5 5c 18 3e 57 5f c0 bd 8e 16 bd 3d f1 05 c8 3c
       0.14879115 -0.09393185 0.092328176 0.024416896
000150 5a b0 67 bd b6 b4 c9 bd af 1d b1 bb fd 52 ba bd
       -0.056564666 -0.09848921 -0.00540515 -0.0909786
000160 cb ba 96 3d 82 d3 12 bd 07 45 e3 bd 61 46 95 bd
       0.07359847 -0.03584624 -0.1109715 -0.07288814
000170 87 4f 92 bd b0 4a 18 bd 81 42 ae 3d a0 43 ac 3c
       -0.07144075 -0.037180603 0.08508778 0.02102834
000180 b7 9f 20 bd e2 b8 5a 3d c0 be ed 3d 0d aa ad bd
       -0.039214816 0.053398974 0.11608648 -0.084797
000190 44 08 ee 3d 83 58 d8 3d 05 c3 75 bd 3c d5 8c bd
       0.1162267 0.10563757 -0.06000044 -0.06876609
0001a0 06 e9 3d 3d 04 32 00 bd 28 40 0c 3e b6 f3 67 bd
       0.046364807 -0.0312977 0.13696349 -0.056628905
0001b0 41 dc 9d 3d 7d d0 ba bc 02 0c c5 bc 05 4e c4 bd
       0.07708026 -0.022804493 -0.024053577 -0.095851935
0001c0 8c 48 e4 3d 54 4a 9f bc b8 13 06 3e 32 a5 5c 3d
       0.1114665 -0.019444622 0.1309346 0.05386848
0001d0 5e 97 c3 3d fa 18 10 3e 7a 36 d8 bb 2b 92 7e 3d
       0.095503554 0.14072028 -0.006598291 0.062151115
0001e0 91 ce 9e 3d 8c 5f 58 3c 49 95 f9 3d 37 08 32 3d
       0.07754243 0.013206374 0.12186677 0.043464866
0001f0 53 99 db 3c a2 03 b3 3d cf 2f df 3d bc 27 45 3d
       0.02680651 0.08740927 0.10897791 0.048133597
000200 ec 9c c3 3d 4d ef 09 bd b8 a3 1e 3d 93 ab d8 bb
       0.09551415 -0.03367548 0.038730353 -0.00661225
000210 80 e3 68 bb b3 0e 38 bd 8f 33 ad bd 8b 46 7b bd
       -0.0035535991 -0.044935893 -0.084571 -0.061346572
000220 68 32 8c 3d dc 02 ae bd 81 1f b6 3c 07 44 84 bd
       0.06845552 -0.08496639 0.02223182 -0.06458288
000230 71 cc 05 3e 1d 66 51 3d 73 aa 76 bc 15 b7 b9 bd
       0.1306627 0.051122773 -0.015055287 -0.09068123
000240 72 24 96 3d 76 15 0a bd 57 cf f3 bc 6c e4 b1 3c
       0.0733117 -0.033711873 -0.029761953 0.021715365
000250 25 18 83 bc 56 30 0c 3e f4 06 bb 3d 2b 8e b2 bc
       -0.016002724 0.13690314 0.091321856 -0.021796307
000260 4a a1 05 bd b1 7d 04 3c 01 50 02 3d 92 18 93 3d
       -0.03262452 0.008086608 0.03181458 0.07182421
000270 63 b6 9a bd f5 c7 f7 bd 51 b1 b7 3b 30 0b 62 bd
       -0.07554319 -0.12098686 0.0056058546 -0.05518645
000280 41 ab e2 bc a3 e5 b3 bd 5a 1d 1a bc 44 d9 63 bd
       -0.02766955 -0.08784034 -0.009406412 -0.055627123
000290 b3 72 f3 bd ca b7 a9 3d f4 82 76 3d d8 eb cc 3d
       -0.118871115 0.08287008 0.06018348 0.10005921
0002a0 36 cf 8f 3d 08 78 ca 3d 13 06 80 3d f0 81 1b bc
       0.07021944 0.098861754 0.062511586 -0.009491429
0002b0 48 c8 8b 3d 0c ae 3c 3d e0 15 d1 bd 6d 29 8d bd
       0.0682531 0.04606442 -0.102092505 -0.06892667
0002c0 9c 12 8b 3b 86 7a d8 3c eb 6c 53 3d 99 dc 67 bd
       0.004244162 0.026425611 0.051617544 -0.056606863
0002d0 d8 6f 4e bd 65 b0 04 3d e9 6b 7b 3d 3b c6 f3 bc
       -0.05039963 0.032394785 0.061382208 -0.02975761
0002e0 ce 1d 0d 3e 39 8d 90 bd 5f 96 bc bd 07 bd 6d 3d
       0.13780901 -0.07058186 -0.092083685 0.0580416
0002f0 40 06 9a 3d b9 53 29 3c a2 91 db 3d ca 58 d3 bc
       0.07520723 0.010334902 0.10721137 -0.025799174
000300 96 23 7c 3d a3 d9 66 bc b8 77 55 3d bd b4 8f 3d
       0.061557375 -0.014089975 0.052116126 0.07016895
000310 08 ee d4 bc 18 87 6d 3d aa 06 a1 bd b5 9c 6a 3d
       -0.025992408 0.057990164 -0.07862599 0.057278354
000320 08 ad 13 3e db f9 d5 bc cd 12 16 bd b7 7d 6e 3c
       0.14421475 -0.026120117 -0.036639024 0.01455634
000330 2b 38 90 3c d2 fb 49 3d f5 a2 7b 3d ac c9 b0 3d
       0.017604908 0.04931242 0.061434705 0.08632216
000340 f0 00 04 3e b6 58 9f bb a8 35 0d 3e 9c 14 12 3e
       0.12890983 -0.00486287 0.1379 0.14265674
000350 22 11 85 3d 7f ce 93 bd 58 8d b5 3d 80 e1 45 bc
       0.064974084 -0.072171204 0.0886485 -0.012077689
000360 14 cd 69 bd b4 26 42 bc 3d 0f 47 3d 57 fd 1a 3e
       -0.057080343 -0.011850048 0.048598517 0.15135704
000370 fd 34 cb 3b 37 dc a1 bd 06 56 74 3d 51 2d e2 bd
       0.006201385 -0.07903331 0.05965235 -0.110438
000380 41 fa b7 3d 00 37 36 3d f6 d7 dd 3d 04 91 01 3e
       0.08983279 0.044486046 0.10832207 0.12652975
000390 73 79 c2 3b b9 fc ef 3d b9 ff f1 3d 06 9f 18 3e
       0.005934888 0.11718125 0.11816353 0.14904413
0003a0 2f fd 04 be 71 89 a5 3c 1b 3a fc 3d 26 f3 bb 3c
       -0.12987207 0.020207139 0.1231577 0.02294309
0003b0 61 a8 84 3a f4 63 0a 3d c3 15 9c 3c bc f7 60 3d
       0.0010120982 0.03378673 0.019053346 0.054923758
0003c0 a5 ca 8a 3d f8 2f fa 3d 47 4b aa 3c ab 37 74 3d
       0.067769326 0.122161806 0.020787848 0.0596234
0003d0 e1 dd 9b bd 98 40 fc bb d5 d8 01 bc ac 16 32 bc
       -0.076106794 -0.00769813 -0.007925232 -0.010869663
0003e0 62 68 b5 3c 75 91 36 bd 62 d9 2c 3d 6e 52 31 bd
       0.0221445 -0.044572312 0.0421995 -0.0432915
0003f0 32 b7 47 bd 33 30 03 3e de 1e 19 bc 81 f2 e4 bc
       -0.048758693 0.12811355 -0.009345738 -0.027947666

lstm.bias_hh_l0 f4 [256]
000000 a7 c0 d5 3d 10 fd be bd d8 96 dd 3d 6e d5 6a bd
       0.10437136 -0.093256116 0.10819787 -0.05733245
000010 71 a8 ad bd 0a a4 7e bd ac ad 63 3b 44 44 0d 3e
       -0.08479393 -0.06216816 0.0034740968 0.13795573
000020 95 1e 09 bd 3f 19 cd 3d 7d a7 26 3e 10 c7 34 3d
       -0.03347643 0.10014581 0.16274829 0.044135153
000030 4f 5c 84 bc 74 28 03 3e a4 f8 53 3d 7b a3 44 3d
       -0.016157297 0.128084 0.051750794 0.04800747
000040 62 78 d9 bc b2 d3 38 bd 53 92 8a bd df 92 8d bc
       -0.02654666 -0.045123763 -0.067661904 -0.017281948
000050 e3 40 84 3c 50 47 96 bd a9 bc a1 bd 8c 58 2b bd
       0.016144222 -0.073378205 -0.07897312 -0.04183249
000060 c6 5b 00 3e ff fc d2 3d 60 3f 83 bd 9c c1 ee 3d
       0.12535009 0.103021614 -0.06408572 0.11658022
000070 42 3d 05 3e 5a b3 61 bc a5 58 96 3d 13 83 9e 3d
       0.13011649 -0.013775671 0.07341126 0.07739844
000080 ad e4 cc bd c4 63 04 3e a7 be b3 3c e5 be 79 bc
       -0.10004554 0.12928683 0.021941496 -0.015243267
000090 dc 4c 89 3d 85 97 1e 3d 23 45 f5 3d c6 06 03 3e
       0.06704113 0.03871872 0.119760774 0.12795553
0000a0 84 14 79 3d b5 dd 0d 3e e3 0f c0 bd 5b 3d aa bd
       0.06081058 0.13854106 -0.0937803 -0.08312484
0000b0 a6 5a 4e bc 8e 19 90 bd 5b 88 38 bc 5b 59 92 3d
       -0.012594854 -0.07036124 -0.011262978 0.071459495
0000c0 24 b9 00 3e e2 5c 7c bb 73 05 2f bb 40 9f d4 3d
       0.12570626 -0.003850751 -0.002670613 0.10381937
0000d0 31 5f dd 3d a1 ab 90 3d 5f 3c 4b bd e2 2e 20 bd
       0.10809172 0.070639856 -0.04961812 -0.03910721
0000e0 0e 1b 80 bd 3f be 3a bd 0d fe 4c 3d 5a bd 69 3b
       -0.0625516 -0.04559159 0.05004697 0.003566584
0000f0 c8 82 07 3e df 29 d3 3c f3 0b 4d 3d 33 83 9c bd
       0.13233483 0.025776802 0.050060224 -0.07642212
000100 48 7e f4 bd f9 a3 02 3e a2 fa 66 3d c4 44 8e 3d
       -0.11938149 0.12757863 0.056391366 0.0694671
000110 69 c2 2d 3b 95 59 b8 bb 36 a3 62 3c ae c9 bc 3d
       0.0026513583 -0.0056259134 0.013832858 0.09218155
000120 0c d8 29 bd e5 76 00 3e 97 e9 f1 3d de 49 d4 3d
       -0.041465804 0.12545355 0.11812132 0.103656515
000130 8b 21 8f bd 94 aa e4 3d c8 9a 5a bc a3 f9 28 bd
       -0.0698882 0.11165348 -0.013342567 -0.041253697
000140 a1 d4 37 3d d5 f3 dd bd e6 43 50 bd 1c 25 04 3e
       0.044880513 -0.10837523 -0.050846003 0.12904781
000150 6e c3 d0 3d e9 22 9d 3c 17 89 d3 3d f4 2c ce ba
       0.10193525 0.019181686 0.10328882 -0.001572995
000160 bd 7b 5f 3b e0 96 eb bd 8a ec 33 3d 97 79 0d 3e
       0.0034100853 -0.115033865 0.043926753 0.13815914
000170 94 91 a5 3b fd db 4c bd ad 15 4d 3d 1f 7c 9a 3d
       0.0050527547 -0.050014485 0.0500695 0.075432055
000180 9a 99 de 3c ca 03 95 3d da d2 a9 3d 9b 4b ce bc
       0.027172852 0.07276113 0.0829217 -0.025182536
000190 99 06 b7 bc 14 4a 0c 3d cf 13 d6 bc 51 59 20 3e
       -0.022342013 0.034250334 -0.026132492 0.15659072
0001a0 85 6c a4 3d c0 b6 bb 3b 0a 34 1b 3d e7 b1 cc bc
       0.08028511 0.0057285726 0.037891425 -0.024987174
0001b0 05 bd 82 bd 4c dc d1 3d f6 8b d3 bd 3e 78 55 bc
       -0.06383709 0.102470964 -0.1032943 -0.013029156
0001c0 be 2e b3 3d 0d e4 8b 3d f9 b0 85 3d 4c 16 b2 bc
       0.0874915 0.068306066 0.065278955 -0.021739148
0001d0 1e ce f5 bd 0e 17 e0 3d 48 12 68 bc ca 13 9e bd
       -0.12002204 0.10941897 -0.014164515 -0.07718618
0001e0 7a 6a da 3d ba 4d 3c bd ce 1f a4 3c 03 6a bb 3c
       0.1066484 -0.045972563 0.020034697 0.022877699
0001f0 3c e4 61 bc 1a 92 9c bd 07 7a be bd a3 86 ee 3d
       -0.0137873255 -0.07645054 -0.093006186 0.11646774
000200 fd 80 72 bd f2 21 ef 3d 7c 95 1f 3d b1 82 b6 bd
       -0.059205044 0.116763964 0.03896092 -0.08911646
000210 77 3b 68 bd 4a 92 26 bd ac 41 1c 3d 0a 15 94 3d
       -0.056697335 -0.040666856 0.038148567 0.072305754
000220 a0 48 e4 bd de c5 d7 3d d3 4a f7 3c 49 f4 23 bd
       -0.111466646 0.10535787 0.030187046 -0.04002789
000230 f0 75 d9 bd 9e e6 ae bd ef c1 85 3d b2 88 08 bd
       -0.10618198 -0.085400805 0.065311305 -0.033333488
000240 dd 51 a0 3c b7 75 f4 bc 9a b7 bf bd 28 a2 56 bc
       0.019570285 -0.029841287 -0.09361191 -0.0131001845
000250 1d 8f d8 3d e5 41 90 bd 84 cf 4b bd 5d af e5 3d
       0.10574172 -0.070438184 -0.04975845 0.112150885
000260 9f 04 d9 3d ad 6c ef bd 8c ab d1 3d 37 3a 5d bd
       0.105965845 -0.1169065 0.10237798 -0.054010596
000270 57 7d dd bd 5b ed 9f 3d e2 66 dc 3c 15 53 af bd
       -0.10814922 0.07808944 0.026904527 -0.085607685
000280 37 45 c0 3d 2d bc 27 3d d9 4b 90 bd 72 12 9e 3d
       0.09388202 0.040950943 -0.07045717 0.07718362
000290 f7 6b ba 3d d0 53 8e bd e8 57 a3 3d 1f 95 7d 3d
       0.09102624 -0.0694958 0.07975751 0.06190979
0002a0 92 00 c9 3b e8 c1 fa 3c d1 99 a6 bc c9 34 37 bd
       0.006134101 0.03061004 -0.020337017 -0.044728074
0002b0 be 86 43 bd 38 f5 90 bd b6 e0 b3 3d c3 34 10 bd
       -0.047735922 -0.07078022 0.087830946 -0.035206567
0002c0 fa 35 2c bc 1d d5 3c 3c ae 74 05 3e d3 eb b2 3d
       -0.010510916 0.01152542 0.13032791 0.08736386
0002d0 09 d4 ba bd b4 67 d9 bd 7b 76 d0 bd c4 43 4c bd
       -0.09122474 -0.10615483 -0.10178848 -0.049869314
0002e0 14 97 96 3d 87 37 fc 3d d4 c6 60 3d f6 53 73 3d
       0.073530346 0.123152785 0.054877117 0.059406243
0002f0 96 c4 e5 bc 3b 50 dd bd db 99 fe bc 37 99 a7 bd
       -0.028047841 -0.10806318 -0.031079223 -0.0818352
000300 ad 0d 73 3d 13 e9 c6 3d 8a 1e 1f 3e 68 ef 5f 3d
       0.059339214 0.09712424 0.15538993 0.054671675
000310 c9 18 c8 bd 03 a0 41 3d 6b 7d 17 bd 25 f1 4a 3d
       -0.097703524 0.04727174 -0.036984842 0.04954638
000320 d7 b4 5c 3d 65 c2 ff ba ab 28 49 3d 2f 3b 8e 3d
       0.0538834 -0.001951289 0.04911105 0.06944882
000330 12 2e 39 3d cd 40 2c bd 0a b1 07 be a0 2a b4 3d
       0.04520995 -0.042053986 -0.13251129 0.087971926
000340 7b 8a 03 bc dc 21 20 bd a5 68 eb 3d 89 13 fe b9
       -0.008028622 -0.03909479 0.11494569 -0.0004846121
000350 ee b2 1c 3e 0f a5 90 bd 56 33 8e 3d 24 8c 8e 3d
       0.15302631 -0.070627324 0.06943385 0.069603235
000360 31 af 1c 3d bd e9 62 3d 53 91 d6 3b fa b1 98 bd
       0.038253013 0.05539869 0.0065480857 -0.07455821
000370 e2 cf 08 bc 4e 2f 24 3d 45 54 1d ba 27 31 0c 3d
       -0.008350344 0.040084176 -0.0006001632 0.034226563
000380 8d 0e b6 3c 0d f0 17 3c b8 ae 12 3e 8b c8 85 3d
       0.022223735 0.009273541 0.14324462 0.06532391
000390 85 06 39 3d 87 20 88 bd 3f ea f3 3d 55 50 0d 3e
       0.045172233 -0.06646829 0.11909913 0.13800175
0003a0 58 c0 ae bd d1 45 0b 3d f9 08 f2 3d 07 6e b6 3d
       -0.085327804 0.03400213 0.11818118 0.08907705
0003b0 69 2f a5 bc e3 9f 9a 3b 7e 5c 21 3e d9 16 8d bc
       -0.020164208 0.004718767 0.15757939 -0.017222809
0003c0 2d f6 17 3d d1 80 04 3e f3 aa 93 bd 25 4c 67 bd
       0.037100006 0.12939765 -0.0721034 -0.0564691
0003d0 ca e5 09 3e 2c 53 06 3e 69 cc 09 3e 2b ef ad 3d
       0.13466564 0.13117665 0.13456883 0.08492883
0003e0 91 a0 e6 3d 0b 35 43 3d 25 25 d0 3c a4 fb 77 3d
       0.11261094 0.047658008 0.025408337 0.060542718
0003f0 e4 b6 d8 3d 7f eb 00 3e bc 73 17 bd 39 87 8b 3d
       0.105817586 0.12589835 -0.036975607 0.06812901

lstm.weight_ih_l1 f4 [256, 64]
000000 f5 db b3 3d 6c 6a ca ba ff bf 5a bd 29 d7 89 3d
       0.08782188 -0.0015443093 -0.053405758 0.06730492
000010 e5 23 37 3d 29 05 ce 3d 78 d9 9e bd ce c8 91 bd
       0.044711966 0.10059578 -0.077563226 -0.071183786
000020 9c f7 e4 3c eb 6f 8b bd 58 de 81 3c 0f 36 e0 bd
       0.0279501 -0.06808456 0.015853092 -0.10947811
000030 81 3f 74 3a f2 0e 97 bd bf 66 4c bc 57 b3 7b 3c
       0.0009317324 -0.073758975 -0.012475668 0.015362582
000040 4a 04 84 bc 76 11 db 3c 87 fe b6 bd 82 34 8f 3d
       -0.016115326 0.026741724 -0.08935266 0.06992437
000050 a9 5d 21 3e 01 d1 7c bb 80 f0 0b bb 70 ba 40 3b
       0.15758385 -0.0038576724 -0.0021353066 0.0029408
000060 7c 12 17 bd e6 af d2 3d 0d 3b b5 bc 87 ab 8c 3d
       -0.036882862 0.10287456 -0.022122884 0.06868654
000070 f3 d4 40 3c 8e 39 25 3e c7 3c 0e bd c8 aa 99 bc
       0.011769521 0.16135237 -0.03472593 -0.018758193
000080 8b c3 94 bc d8 ff 8b 3d fd ae 8b 3b 35 6f e7 3d
       -0.018159648 0.06835908 0.0042628036 0.11300508
000090 1f 63 5a bd b7 7b 7d bd fd 27 a3 bd 17 a0 43 bd
       -0.053317185 -0.06188556 -0.079666115 -0.047760095
0000a0 5b c8 80 bd a2 2d 00 bd 64 30 0b 3d 40 1c 79 3d
       -0.06288215 -0.03129352 0.033981696 0.060817957
0000b0 6b 7f 25 3d cb 3d 71 bc f3 2f 16 3d fe fe 09 3b
       0.04040472 -0.014724205 0.03666682 0.0021056528
0000c0 b0 a7 08 3e 58 4a 67 bd 98 0c ea 3d 29 69 4e bb
       0.13345218 -0.056467384 0.11428183 -0.0031495786
0000d0 60 f0 09 bb 36 fc 9a bd 3e 5e b3 bd 3b bc 83 3d
       -0.0021047816 -0.07567637 -0.0875821 0.064323865
0000e0 6a 74 54 bd b3 a1 15 3e 35 33 9a bd d5 15 9e bd
       -0.051868834 0.14612465 -0.07529298 -0.07719008
0000f0 b1 76 59 3d 2c 37 63 3d 57 3f f6 3d e6 09 ca bc
       0.05309171 0.055472538 0.120238 -0.024662923
000100 87 3d f0 bd 68 49 bf 3d 43 1c de bd eb e4 c3 bc
       -0.117304854 0.09340173 -0.10845234 -0.023912868
000110 55 6f 7d 3c e0 29 a9 bd d9 7f b5 bd e2 86 8b bd
       0.015468438 -0.0825994 -0.08862276 -0.06812836
000120 d6 37 87 bc 32 be 0c bd b2 07 cb 3c 99 b1 ea 3d
       -0.016506117 -0.034361072 0.024783943 0.11459655
000130 ab 73 2f 3d d6 21 84 3d c3 9f d4 3d f3 36 e8 bd
       0.04283492 0.06451766 0.10382035 -0.11338606
000140 c3 75 b5 3d bf 85 ab 3d cc 45 ab 3c 74 77 d3 bd
       0.08860352 0.083751194 0.020907305 -0.10325518
000150 b8 f6 89 3d b1 02 17 3e 99 75 ff 3d ac 65 13 3e
       0.06736511 0.1474712 0.12473602 0.14394253
000160 6a bf 57 bb b2 a0 a6 bc d1 55 ea bc c0 4b c0 bc
       -0.0032920488 -0.020340297 -0.028605374 -0.02347362
000170 83 e3 b8 bd 22 06 a7 3d 19 ae 6b bd 3b 44 91 bd
       -0.090277694 0.081554666 -0.05753908 -0.07093092
000180 05 1c bc 3c 0b 9c f3 bd 52 cd b7 3d 26 c1 84 3d
       0.02296258 -0.11894997 0.089747086 0.06482153
000190 d9 de c5 bd 98 bb 89 bd 1a cd 48 3d 98 1c ab bd
       -0.096616454 -0.06725234 0.049023725 -0.08355063
0001a0 fb af 18 3b ff de 96 bc 6f 59 ec 3d 1f 13 7e 3d
       0.0023298252 -0.01841688 0.115404956 0.062029954
0001b0 ce 0f be 3d a8 59 d6 bd ee dc f0 bc f1 70 ba 3c
       0.09280358 -0.10466319 -0.029402222 0.022758933
0001c0 0a 65 08 be b3 20 cd 3d ed 3b 69 3d a0 37 4f 3d
       -0.13319793 0.100160025 0.056941915 0.050590158
0001d0 75 5e cf bd e3 80 8d bc 2f 3d a3 bd b5 8d a2 3d
       -0.10125438 -0.017273372 -0.07970654 0.07937185
0001e0 be e3 98 3c d9 5b c2 3d 34 2c 9d 3d 73 74 26 bd
       0.018663283 0.09490175 0.07674447 -0.0406384
0001f0 11 c7 f6 bd eb 6f ea bd 67 53 a6 3d 0a c0 10 bc
       -0.12049688 -0.11447128 0.081213765 -0.008834848
000200 65 7e 21 bd a9 70 63 bb c5 37 a6 3c e7 41 33 bd
       -0.03942718 -0.0034704602 0.020290265 -0.04376402
000210 59 c9 0e 3d 78 c6 b5 3b be 0a a4 bd 9b 46 06 be
       0.03485999 0.005547341 -0.080098614 -0.13112871
000220 07 07 0d bb 84 de b1 3d ed 41 94 3d ac 38 87 3d
       -0.0021519081 0.086850196 0.07239137 0.06602606
000230 9d d5 f8 3d 16 92 89 bc bc ef a6 3b 45 6b 53 bd
       0.121501185 -0.016793292 0.0050944965 -0.051615972
000240 9b 64 17 3e f4 f8 94 ba ae 08 e9 bd 87 84 a0 3c
       0.14784472 -0.0011365698 -0.11378609 0.019594444
000250 0a d2 09 3d 49 1a c0 3d ca 22 a8 3d 85 cd d8 3c
       0.033647574 0.093800135 0.082097605 0.026465187
000260 c4 0d 3d bd ac e8 23 3d a1 57 3a bd 7d bf de 3d
       -0.046155706 0.040016815 -0.045493726 0.10876367
000270 e8 bc 1f 3d 17 b9 32 bd db 7f fe bb 65 b6 a1 3d
       0.038998514 -0.043633547 -0.0077667064 0.07896117
000280 da e0 16 3d 84 65 31 3d 75 1b 17 3e 83 98 36 3c
       0.03683553 0.043309703 0.14756568 0.01114476
000290 19 ee 00 be 79 6a 50 bd a6 23 87 ba 4b 7c 7c bd
       -0.12590827 -0.05088279 -0.0010310307 -0.061641973
0002a0 db 82 d8 bd ab bd c2 3d c3 c3 da 3d 30 b1 4d bd
       -0.10571834 0.095088325 0.1068187 -0.050217807
0002b0 22 d4 b5 bc c0 e4 82 bd 64 5c 88 bd 20 8d 90 3d
       -0.02219588 -0.06391287 -0.06658247 0.070581675
0002c0 6a 0f 8f 3d af 7a eb bd bb 72 14 3d 6f a6 c8 3d
       0.06985362 -0.114980094 0.036242228 0.0979737
0002d0 ef ad 98 3d b2 b3 bd bd 76 2a c5 3d 4c fa 83 bd
       0.0745505 -0.0926279 0.096272394 -0.06444225
0002e0 56 b7 5f bd 71 e2 aa bc ee e1 05 be ad 52 45 bd
       -0.054618202 -0.020859929 -0.13074467 -0.04817455
0002f0 04 61 88 3d 77 03 f6 3c 9b e9 a6 3d 29 c1 ad bd
       0.06659129 0.030030949 0.081500255 -0.08484108
000300 32 c1 16 be 66 91 67 bd 16 8c 88 3d 21 84 ba 3c
       -0.14722136 -0.056535147 0.06667344 0.022768082
000310 d9 b7 79 bc d1 13 a9 bd d6 ab c2 3d cf 66 1a be
       -0.015241587 -0.08255733 0.09505431 -0.15078281
000320 00 79 64 3d f5 a2 cf 3d 0c 1b 80 3d 77 ce a2 3d
       0.055779457 0.101385035 0.06255159 0.07949536
000330 5e 58 f4 3d ec 95 11 be bb 49 bc 3d a2 13 aa bc
       0.11930917 -0.14217347 0.091937505 -0.020761315
000340 c4 fe 70 bd 80 b1 d8 3d 43 ed 12 be 9d ec 10 3c
       -0.058836713 0.105807304 -0.1434832 0.0088454755
000350 33 e1 2e 3d 65 81 0a 3e ae f7 32 bd 4b 3a b9 3d
       0.042695235 0.13525923 -0.043693237 0.090443216
000360 fc a1 c7 3d ef b2 ed bd 54 33 87 3d 95 4e 6b bd
       0.09747693 -0.116063945 0.06601587 -0.05744799
000370 7d f5 4c bd fa fd be bd 1d f1 9f bd 1e 06 d5 bd
       -0.050038803 -0.09325786 -0.078096606 -0.104015574
000380 66 60 af 3d 61 4e 70 3d fc 59 85 bd e9 53 c4 bd
       0.085633084 0.058668498 -0.06511304 -0.09586317
000390 e6 67 c0 bd 05 6c 23 3d 97 d2 e6 3c 5c 31 c1 bd
       -0.09394817 0.039897937 0.028176589 -0.09433243
0003a0 78 a3 8a 3d 84 54 c9 bd c1 37 9c 3d 87 9e 16 bd
       0.067694604 -0.09830573 0.07627822 -0.036772277
0003b0 e3 e6 83 3d 2e 35 fe bd b5 5c 12 be 09 da a1 3d
       0.064405225 -0.12412487 -0.14293177 0.07902915
0003c0 ad 4d 30 3d 89 bd af bd b8 8a ec 3d 2d ad f3 bd
       0.043042827 -0.08581073 0.11549896 -0.11898265
0003d0 7b c4 4e bc 88 86 a4 bd 27 26 b3 3d e7 35 9c bc
       -0.012620087 -0.08033472 0.08747511 -0.019068671
0003e0 dd ad a6 bd e2 e8 da 3d 26 0f 64 bc 1e c2 b5 3d
       -0.081386305 0.1068895 -0.013919627 0.088749155
0003f0 d1 c1 d4 bd 67 30 b1 bd 8e 41 68 bd b0 61 d0 3d
       -0.1038853 -0.0865181 -0.056703143 0.101748824

lstm.weight_hh_l1 f4 [256, 64]
000000 b6 e6 d6 bd ac e3 0e 3d dd 7b 0b 3e b6 80 a8 bd
       -0.10493223 0.034885094 0.13621469 -0.08227675
000010 66 6e dc bd 74 78 d5 bd 25 2a 7a 3d 9d aa 96 bd
       -0.10763244 -0.10423365 0.06107535 -0.07356761
000020 61 3a 0c 3e a6 2f a8 bc a9 45 73 bd 10 55 a7 3d
       0.13694145 -0.020530533 -0.059392605 0.08170521
000030 9e 5e c7 3d ef 5a 1b 3d 39 db be 3d 8c fe 2f bd
       0.09734844 0.037928518 0.09319157 -0.042967364
000040 35 c5 13 be 7a fd b6 3d 66 1b 0a 3d 2c 62 d6 3d
       -0.14430697 0.089350656 0.033717535 0.104679435
000050 14 a9 55 bc 9a 34 b3 bd d2 08 2b 3d 2b cf 00 be
       -0.0130408 -0.08750267 0.04175646 -0.12579028
000060 ea 15 c6 3d 49 ae 75 bb 90 3c e5 3c 4c e3 ca 3d
       0.096721485 -0.0037487915 0.02798298 0.09906635
000070 f7 f1 f1 3d 93 6c a1 bd 1b ec 49 bd 4f 14 96 3d
       0.11813729 -0.07882037 -0.049297433 0.07328092
000080 95 84 47 bd 42 a7 96 bc e8 71 89 bd 71 8c d0 bd
       -0.048710424 -0.018390302 -0.06711179 -0.10183037
000090 6c a6 56 bb 41 1f 8d bc 0f 99 e7 3b af d2 66 bd
       -0.0032753004 -0.017226817 0.0070678066 -0.056353267
0000a0 83 f6 94 3d e5 35 9f 3d 9e 94 6d bd 8a aa 0f 3e
       0.07273581 0.077739514 -0.05800306 0.14029899
0000b0 89 6b ad bd 3d ae ad 3d 61 3e cd 3d 74 d5 8a 3d
       -0.08467776 0.08480499 0.100216635 0.06778994
0000c0 81 e0 e0 3d 46 03 bf bd 1b 8a af bb ab 94 92 3d
       0.10980321 -0.09326796 -0.0053570396 0.071572624
0000d0 e5 33 fa 3c df 22 51 bc 20 63 0f 3d fc 24 03 3e
       0.030542323 -0.012764662 0.035006642 0.12807077
0000e0 f2 2e 67 bd 15 4c e9 bd f6 9a f2 bd 11 4a 3f 3d
       -0.056441255 -0.113914646 -0.11845963 0.046701495
0000f0 82 14 53 3d f8 4d d2 3d 29 0c 10 3a 19 a2 99 3d
       0.05153323 0.102687776 0.0005494976 0.07501621
000100 3d 0e 03 be 99 55 fd bd 2d ea 8b bd cd f3 f0 bb
       -0.127984 -0.12369842 -0.06831775 -0.007353282
000110 b1 1a 32 bb 45 5e 13 3e 53 9a 66 3d 67 12 7b 3d
       -0.0027176554 0.1439143 0.05629952 0.061296847
000120 95 a9 05 bd 8a 00 17 3d 69 58 ae 3d 1a f1 f7 3d
       -0.03263243 0.03686575 0.08512957 0.12106533
000130 94 04 17 be d1 51 ca 3d b0 a4 16 3d 4d 3e 4f bd
       -0.1474784 0.098788865 0.036778152 -0.050596524
000140 70 8a ad bd e3 8b d6 3d 8f 9d 71 3d 41 ff 4f 3c
       -0.084736705 0.104759 0.05898815 0.012695135
000150 62 bc e4 3d 9c e1 65 3d 0d 7b 9e 3d d7 4b f9 bd
       0.11168744 0.05612336 0.07738314 -0.121726684
000160 9c ed ee bc 9d 58 16 3e e7 fd 12 bd 5d 0f be bd
       -0.029166035 0.14682241 -0.03588667 -0.09280274
000170 4f 18 89 bd 8e f7 11 bd 6c 59 20 3d 67 73 9b bd
       -0.066940896 -0.035636477 0.03914778 -0.075903706
000180 76 05 ff 3c 60 92 8e 3c a6 36 e1 3d 6c 5c 67 bc
       0.031130534 0.017403781 0.109967515 -0.014121156
000190 23 23 97 bd d9 94 b9 3d 15 53 c6 bd 0c a8 87 bd
       -0.07379749 0.090615936 -0.096838154 -0.06623849
0001a0 a5 60 29 bd 02 9c 1e 3d e0 1f d0 bc cd 3b 79 3c
       -0.041351933 0.038723 -0.025405824 0.0152120115
0001b0 26 3c 6b bd 8a e2 e4 bc 50 de 7d 3d 2d ee 7c bd
       -0.05743041 -0.027940053 0.06197959 -0.06175058
0001c0 1c 59 05 bd 76 b0 87 bd 46 7f dc bd b5 60 c5 3d
       -0.032555684 -0.06625454 -0.10766463 0.09637586
0001d0 27 8e 92 bd 7b b1 84 3d 7d 8a db bd 54 e4 39 bc
       -0.0715602 0.06479164 -0.10719774 -0.011345942
0001e0 72 96 86 bd 58 ce 80 bd 6b 7e d4 bd 2f 25 b0 bd
       -0.06571664 -0.06289357 -0.10375675 -0.08600842
0001f0 2c 41 8e 3d 6a 13 85 bd 22 58 f1 3d e0 3a 17 bd
       0.06946024 -0.064978436 0.11784388 -0.036921382
000200 0b bf 65 bd ab 1b ef 3d 32 12 ba 3c 47 85 fe bd
       -0.056090396 0.11675199 0.022713754 -0.124277644
000210 6a 62 a4 bd 20 f6 bd 3d 09 63 b7 bc 74 b6 d1 3d
       -0.080265835 0.0927546 -0.02238609 0.10239878
000220 b6 56 bf bd f9 e5 00 3d fa 45 89 bd 75 29 3c 3d
       -0.09342711 0.03146932 -0.067028 0.045937974
000230 59 80 b4 3d ab 32 1e bd b2 c0 11 be d9 d7 07 3e
       0.08813543 -0.03862254 -0.14233664 0.13265933
000240 59 94 ec bd 49 dc 99 bd 53 8a ae bd 7b 43 21 3d
       -0.115517326 -0.07512719 -0.08522477 0.039370995
000250 24 0a 51 bc 69 7d 54 3d 68 be 0b bd 7d 59 5a bd
       -0.012758765 0.051877413 -0.034117132 -0.053308
000260 93 ef 25 3d 16 64 c5 bd 1e 07 4d bc 1c c4 83 bd
       0.04051168 -0.096382305 -0.012513904 -0.06433889
000270 fb 44 eb 3c 63 19 97 3d b4 97 a4 bd b1 be 77 bd
       0.028719416 0.07377889 -0.080367476 -0.060484592
000280 9c 7b 1b bd b6 0e 1f 3d 1c 1f 1c 3e 8c 08 83 bd
       -0.03795968 0.03883239 0.15246242 -0.063981146
000290 b7 58 2f bb c8 98 df bb 9c d2 ee bd e8 1e 84 bc
       -0.002675576 -0.006823633 -0.11661264 -0.016128018
0002a0 ce 9d 39 3d f1 80 ee bc 36 e3 ad bd 03 be 6c 3d
       0.04531651 -0.029114218 -0.08490603 0.057798397
0002b0 2d 11 a5 3c 90 bc 3e 3c fe 2c 8e bd 31 06 50 3d
       0.020149792 0.0116416365 -0.06942175 0.050787155
0002c0 3c 83 55 3d 29 f5 af 3d 4f de 0a 3e 4a a2 03 3d
       0.052127108 0.085916825 0.13561366 0.032137193
0002d0 df 41 55 3d 0a cb ee 3d 41 be 70 3d e2 e0 84 3c
       0.052064773 0.116598204 0.05877519 0.016220514
0002e0 06 8c cf 3c b5 89 b9 bd 98 fa fa 3d a9 09 0b 3c
       0.025335323 -0.09059469 0.12254828 0.00848619
0002f0 da bd 35 3c fe 19 a7 3d 10 c6 ba bd 7f b4 f5 3b
       0.011092627 0.081592545 -0.09119809 0.0074983235
000300 b1 18 d8 bd 2e 15 e1 bd 28 34 79 3c 95 21 bf 3d
       -0.105515845 -0.10990368 0.015210189 0.09332577
000310 dc 19 ca 3d c5 e4 d7 3d 10 5f f1 bc b3 e3 c0 3d
       0.098682135 0.10541681 -0.029464275 0.0941843
000320 a7 07 30 bd c1 4b e6 3d 89 0a 0f bd 3e da 4c bd
       -0.042976048 0.11244918 -0.034922156 -0.05001282
000330 0e f5 98 3d 4f 8c d7 3c 7b 81 31 bd 62 21 7c 3d
       0.074686155 0.026312022 -0.043336373 0.061555274
000340 73 e4 7c 3c 6d 4c 19 3e 34 ba 3f bc 78 86 76 bc
       0.015435326 0.1497056 -0.011702109 -0.015046708
000350 04 32 41 bc ba 70 9b bd 06 6e 4d 3c 08 63 bc 3d
       -0.01179171 -0.0758986 0.012538439 0.09198576
000360 49 f0 ed 3b 84 18 05 3d 48 6b 10 3d 02 70 fa bb
       0.0072613102 0.032494083 0.03525856 -0.007642747
000370 ad 4e b5 3c 45 d7 1b 3d 73 97 c7 3d c2 00 ea 3d
       0.022132242 0.038047094 0.097456835 0.11425926
000380 49 0f f6 3d 6b c0 82 bd 10 f3 bc 3d 6e 9f a0 bc
       0.12014634 -0.06384357 0.09226048 -0.019607272
000390 32 c4 91 bd ee 53 27 bd 28 bf dd bd da c8 00 be
       -0.071174994 -0.040851526 -0.10827476 -0.12576619
0003a0 af 20 72 3d 71 6d d7 3d 2f 9d ef bb 16 fb a6 3d
       0.0591132 0.10518921 -0.007312439 0.081533596
0003b0 79 4e e5 3c 48 d8 b5 3d 05 5b dc 3d 2e 8b 66 bd
       0.02799152 0.08879143 0.10759548 -0.056285076
0003c0 35 97 d2 bb bd ce 3c bd 60 cc fe bc 12 db 36 bd
       -0.0064267167 -0.0460956 -0.031103313 -0.044642515
0003d0 5f 1d a2 3d 26 3e 69 bd eb cc c0 bd 10 a1 c8 3d
       0.07915758 -0.056944035 -0.09414085 0.09796345
0003e0 09 70 9a 3d 27 48 e1 bc e0 ff eb bd 95 19 0a bd
       0.075409 -0.027500225 -0.11523414 -0.033715803
0003f0 b1 c3 9a 3d 9e 17 8a bd 66 2a 76 3d 65 4a bc 3d
       0.075568564 -0.06742786 0.060099028 0.09193877

lstm.bias_ih_l1 f4 [256]
000000 84 84 a8 bd a5 92 04 3e ea 85 d7 3d da 88 d9 3d
       -0.082284 0.12946565 0.10523589 0.106218055
000010 e8 e4 b2 ba 01 83 02 be 20 8d b1 3d 99 61 16 bd
       -0.0013648542 -0.12745287 0.086694956 -0.03671417
000020 1d 69 cd 3d 1a fa 85 bd 7a 0b ad 3d 46 6a 45 bd
       0.100298144 -0.06541844 0.084494546 -0.048197053
000030 35 57 97 bd ae a7 d8 3b 10 61 fa 3d e2 09 c8 3d
       -0.0738968 0.006611786 0.122255445 0.0976751
000040 db e8 d3 3d 07 d6 09 bd 04 1d b7 3d 03 2c 84 bd
       0.10347148 -0.033651378 0.08941081 -0.06453707
000050 cd bd 34 bd 48 db 84 bd 89 a6 f5 3d c3 6a 25 bd
       -0.04412632 -0.06487137 0.11994655 -0.04038502
000060 c6 86 81 bd cc 3d a0 bd a9 3b 07 3e 75 da 01 3e
       -0.06324534 -0.07824287 0.13206352 0.12680991
000070 9a b6 f0 bd be 7c 0f bd bd 8d 12 3e f5 e4 0a 3e
       -0.117535785 -0.035031073 0.14311881 0.13563903
000080 2c e1 40 3d 84 b2 86 bd 94 f4 de 3d 12 36 35 bd
       0.04708974 -0.06577018 0.10886493 -0.04424102
000090 f9 56 1d 3e 28 f0 36 3d cc 35 3f 3d 9f 1a ce 3d
       0.15365209 0.044662625 0.046682164 0.10063671
0000a0 6d 7c 95 bd 8d 3c b4 bd fa 0a 4f 3d 74 70 d5 bc
       -0.07299123 -0.08800612 0.050547577 -0.026054598
0000b0 40 ce 3c bd e0 9f af 3d 42 e1 ae bd 39 9b ff bc
       -0.046095133 0.085754156 -0.08539058 -0.031201946
0000c0 1b 7f f8 bc 83 5a 40 bd 69 82 eb bd f4 b0 27 bc
       -0.030334046 -0.04696132 -0.11499483 -0.01023506
0000d0 d4 91 1a 3e 61 7e 44 bb 68 d3 bf 3d 0a e7 ed bd
       0.15094692 -0.0029982554 0.093664944 -0.11616333
0000e0 c5 2a 7f 3d 26 b6 ec bc de 56 54 3c 3f 96 d0 3d
       0.062296648 -0.028895449 0.012960164 0.10184907
0000f0 7f 6f 5f 3d 7d 58 80 bd 27 02 04 bd 67 17 f6 3d
       0.05454969 -0.06266878 -0.032228615 0.120161824
000100 53 1e b7 bb 24 5d 6d b8 53 fa 35 3d 64 1d e0 3b
       -0.0055883317 -5.6591947e-05 0.04442818 0.006839441
000110 60 16 95 3d a1 e4 0f bd fc 05 b5 3c 79 c4 fa bc
       0.07279658 -0.035130147 0.02209758 -0.030611264
000120 a8 06 19 3a db d1 02 3d d3 7c a0 bc e7 b0 4e bd
       0.00058374787 0.031938415 -0.01959077 -0.050461676
000130 1b 38 9b bc 38 53 67 3c 7a a3 23 3e 53 56 e1 3d
       -0.018947652 0.014118962 0.1598033 0.11002793
000140 19 58 cf ba 63 6a c4 bc 5d fc f8 3c e2 c1 a6 3d
       -0.0015819102 -0.02397651 0.030393774 0.08142449
000150 48 ab 14 3c 7c f4 6f 3b bf fc 64 bd ea 7b c3 bd
       0.00907404 0.003661423 -0.0559051 -0.09545119
000160 e7 7d 05 be bd f3 e6 3d 6a 4c 7b bd e3 56 9e 3d
       -0.13036309 0.11276958 -0.06135217 0.07731416
000170 02 02 cb bd 5e e3 67 bc bb 46 cd bd 17 fb 1a 3d
       -0.09912492 -0.01415333 -0.100232564 0.037837114
000180 a1 c2 98 bc d6 09 44 3a b4 78 30 bd 9f 9d cd 3c
       -0.018647494 0.00074782723 -0.04308386 0.025099574
000190 72 16 cb 3d 84 b6 0e 3e ed bc fd bc b1 3f 13 bd
       0.099163905 0.13936812 -0.030973876 -0.035949413
0001a0 0f aa 81 3c 14 b3 e1 3d b8 d4 e5 3d e4 2a eb 3d
       0.01582816 0.110204846 0.112222135 0.1148279
0001b0 89 1d aa bd 48 ba 90 bd a8 e6 a9 3c db dd 7d 3c
       -0.08306415 -0.0706678 0.020739868 0.015494789
0001c0 1e 03 be 3b 7c 44 cd 3d a1 c8 55 bd 90 39 84 3d
       0.0057987114 0.10022828 -0.052193288 0.06456292
0001d0 66 d6 31 bd 76 59 db bd f4 b7 a2 bc 50 6e 04 3e
       -0.043417357 -0.10710423 -0.019863106 0.12932706
0001e0 09 bb 13 bc 52 d3 ae 3d a0 5c 16 3e 6b 74 a4 3b
       -0.009016761 0.085364 0.14683771 0.005018761
0001f0 0b 64 9e bd 03 f4 98 bd 3d 02 c7 3d 07 99 86 bd
       -0.077339254 -0.074684165 0.09717224 -0.065721564
000200 94 d7 b8 bd 5e 30 00 be 2b 70 f4 39 fd cc 1d bd
       -0.09025493 -0.1251845 0.00046622878 -0.03852557
000210 a3 7b 2d 3d 81 a7 e3 bb 7e d7 65 bd e7 60 c0 bd
       0.042354237 -0.0069474583 -0.056113712 -0.09393483
000220 97 cf fd 3d 4a f4 5a bd 7a b8 98 bd 1e 9e c5 3d
       0.1239311 -0.05345563 -0.07457061 0.09649299
000230 31 c0 02 be 8b c8 51 bd db 1e 7c 3d c8 e5 ce bc
       -0.12768628 -0.051216643 0.061552864 -0.025256053
000240 ef 8e c4 bd 69 f8 4c bd 58 e1 0b 3e 34 e4 c1 bd
       -0.09597575 -0.05004159 0.1366018 -0.094673544
000250 2e b4 76 3d 73 a8 09 3d 9e 00 3c bd 33 a9 36 bd
       0.060230426 0.03360791 -0.045899026 -0.044594955
000260 fc e7 d0 bb d6 b0 97 3d 57 0f 8c bd 71 b8 39 bd
       -0.006375311 0.07406776 -0.06838863 -0.045341913
000270 c6 2c e7 bb 21 2c c8 3c 4d 34 a3 3d ad 43 cf bd
       -0.007054898 0.024435105 0.0796896 -0.1012033
000280 cb 4b dd 3d 23 d1 29 3c 19 fe e6 3d 2b b0 38 3d
       0.10805472 0.0103648035 0.11278934 0.045089882
000290 1d ca 97 3c 5a 64 ff 3c 07 ab 65 bd 13 09 55 bd
       0.018528992 0.031175781 -0.056071308 -0.052010607
0002a0 18 ec 8c bd 16 b0 90 3d 94 b4 2c bc 5e 3e fa 3d
       -0.06880969 0.07064836 -0.0105411 0.12218927
0002b0 68 6e 55 3d 01 9b 51 bd 3e 99 d6 bd 8c 9e b5 bd
       0.052107245 -0.051173214 -0.104784474 -0.08868131
0002c0 78 c2 8c ba 6e 69 bc 3d 80 67 3b 3d 3d b1 64 3d
       -0.0010739109 0.091997966 0.045753002 0.05583309
0002d0 a9 5d 01 3c 83 40 68 3c e5 ce 84 3c 63 d1 28 bd
       0.0078958655 0.014175537 0.016211936 -0.04121531
0002e0 04 b3 9b 3d 5e 44 aa bd e4 dd 7e 3c b6 a4 ab bd
       0.07602504 -0.08313821 0.015555833 -0.083810255
0002f0 94 d3 92 3d ba 93 41 3d 00 5a 94 bd bd 03 0b 3d
       0.071692616 0.047260024 -0.07243729 0.033939112
000300 b6 2a e7 3d 39 56 4b bd 4b 66 97 bc 35 2a 8e bc
       0.11287443 -0.049642775 -0.018481394 -0.01735411
000310 bb 90 9f 3d 44 f0 aa 3d bc b0 9c 3d 51 2e 1b 3a
       0.07791277 0.08346608 0.07650897 0.00059196824
000320 17 6d 04 3e 24 3c f3 3d ae ec 11 bb ca d9 44 bc
       0.1293224 0.11876705 -0.0022266316 -0.012014816
000330 d5 d5 16 3e 66 ce 9f 3d 96 19 03 bd 15 b4 51 3b
       0.14730008 0.07803039 -0.032006823 0.0031998206
000340 a2 03 e6 3d 2d c8 7d bd b4 0b b9 3c 9c 4a 07 3e
       0.11231162 -0.06195848 0.022588588 0.13212055
000350 54 dc a0 3c da fa d8 bc 4b b3 cd 3d 05 25 85 3d
       0.01963631 -0.026486803 0.10043963 0.065012015
000360 8c 4d 85 bd 68 83 de bc f0 a6 14 3e 4e e0 27 3d
       -0.065089315 -0.027162269 0.14516807 0.040985398
000370 7c cf f4 3b cb 67 be 3d 76 5c 2b 3d c3 7d 17 3e
       0.007471023 0.09297141 0.041836224 0.14794068
000380 43 51 d1 bd 2d a9 33 bd 77 3b f9 3d 0d 7b b4 3d
       -0.102205776 -0.04386251 0.12169545 0.088125326
000390 49 ca be 3d c7 b3 b5 bc fa e9 a9 bd ef ab 90 3d
       0.093159266 -0.022180451 -0.082965806 0.07064044
0003a0 36 93 04 3e cf 02 c4 3d ee 6b 23 3d 91 74 4b 3d
       0.12946782 0.09570848 0.03989785 0.049671713
0003b0 75 cf 01 3e ff 26 8c bd 17 b5 16 3e 65 35 9c 3d
       0.12676795 -0.068433754 0.14717518 0.07627372
0003c0 8d 3f 96 3d 8a d4 de 3c 94 a5 ec bc cd 3c 9a 3d
       0.0733634 0.027200956 -0.028887548 0.07531128
0003d0 f0 d6 db 3d 92 5b bb bd 4a f6 2e bd 15 c6 f2 bd
       0.107343554 -0.09148325 -0.04271535 -0.118541874
0003e0 38 c7 f1 3d 48 65 bb 3d a6 77 57 bc c5 8c ac 3d
       0.11805576 0.09150177 -0.013151085 0.08425287
0003f0 b2 7d d2 3d ea 43 57 bd 39 df 1e bd eb 56 77 3d
       0.10277881 -0.052555002 -0.0387871 0.060385626
